…
I0130 12:52:40.055204 32230 solver.cpp:91] Creating training net from net file: ALL_CNN_C_train_val.prototxt
I0130 12:52:40.055415 32230 net.cpp:322] The NetState phase (0) differed from the phase (1) specified by a rule in layer data
I0130 12:52:40.055522 32230 net.cpp:58] Initializing net from parameters: 
name: "ALL-CNN-C"
state {
  phase: TRAIN
  level: 0
  stage: ""
}
layer {
  name: "data"
  type: "Data"
  top: "data"
  top: "label"
  include {
    phase: TRAIN
  }
  data_param {
    source: "cifar-10_train_lmdb"
    batch_size: 256
    backend: LMDB
  }
}
layer {
  name: "drop1"
  type: "Dropout"
  bottom: "data"
  top: "data"
  dropout_param {
    dropout_ratio: 0.2
  }
}
layer {
  name: "conv1"
  type: "Convolution"
  bottom: "data"
  top: "conv1"
  param {
    lr_mult: 1
  }
  param {
    lr_mult: 1
  }
  convolution_param {
    num_output: 96
    pad: 1
    kernel_size: 3
    stride: 1
    weight_filler {
      type: "xavier"
    }
    bias_filler {
      type: "constant"
      value: 0
    }
  }
}
layer {
  name: "relu1"
  type: "ReLU"
  bottom: "conv1"
  top: "conv1"
}
layer {
  name: "conv2"
  type: "Convolution"
  bottom: "conv1"
  top: "conv2"
  param {
    lr_mult: 1
  }
  param {
    lr_mult: 1
  }
  convolution_param {
    num_output: 96
    pad: 1
    kernel_size: 3
    stride: 1
    weight_filler {
      type: "xavier"
    }
    bias_filler {
      type: "constant"
      value: 0
    }
  }
}
layer {
  name: "relu2"
  type: "ReLU"
  bottom: "conv2"
  top: "conv2"
}
layer {
  name: "conv3"
  type: "Convolution"
  bottom: "conv2"
  top: "conv3"
  param {
    lr_mult: 1
  }
  param {
    lr_mult: 1
  }
  convolution_param {
    num_output: 96
    pad: 1
    kernel_size: 3
    stride: 2
    weight_filler {
      type: "xavier"
    }
    bias_filler {
      type: "constant"
      value: 0
    }
  }
}
layer {
  name: "relu3"
  type: "ReLU"
  bottom: "conv3"
  top: "conv3"
}
layer {
  name: "drop2"
  type: "Dropout"
  bottom: "conv3"
  top: "conv3"
  dropout_param {
    dropout_ratio: 0.5
  }
}
layer {
  name: "conv4"
  type: "Convolution"
  bottom: "conv3"
  top: "conv4"
  param {
    lr_mult: 1
  }
  param {
    lr_mult: 1
  }
  convolution_param {
    num_output: 192
    pad: 1
    kernel_size: 3
    stride: 1
    weight_filler {
      type: "xavier"
    }
    bias_filler {
      type: "constant"
      value: 0
    }
  }
}
layer {
  name: "relu4"
  type: "ReLU"
  bottom: "conv4"
  top: "conv4"
}
layer {
  name: "conv5"
  type: "Convolution"
  bottom: "conv4"
  top: "conv5"
  param {
    lr_mult: 1
  }
  param {
    lr_mult: 1
  }
  convolution_param {
    num_output: 192
    pad: 1
    kernel_size: 3
    stride: 1
    weight_filler {
      type: "xavier"
    }
    bias_filler {
      type: "constant"
      value: 0
    }
  }
}
layer {
  name: "relu5"
  type: "ReLU"
  bottom: "conv5"
  top: "conv5"
}
layer {
  name: "conv6"
  type: "Convolution"
  bottom: "conv5"
  top: "conv6"
  param {
    lr_mult: 1
  }
  param {
    lr_mult: 1
  }
  convolution_param {
    num_output: 192
    pad: 1
    kernel_size: 3
    stride: 2
    weight_filler {
      type: "xavier"
    }
    bias_filler {
      type: "constant"
      value: 0
    }
  }
}
layer {
  name: "relu6"
  type: "ReLU"
  bottom: "conv6"
  top: "conv6"
}
layer {
  name: "drop3"
  type: "Dropout"
  bottom: "conv6"
  top: "conv6"
  dropout_param {
    dropout_ratio: 0.5
  }
}
layer {
  name: "conv7"
  type: "Convolution"
  bottom: "conv6"
  top: "conv7"
  param {
    lr_mult: 1
  }
  param {
    lr_mult: 1
  }
  convolution_param {
    num_output: 192
    kernel_size: 3
    stride: 1
    weight_filler {
      type: "xavier"
    }
    bias_filler {
      type: "constant"
      value: 0
    }
  }
}
layer {
  name: "relu7"
  type: "ReLU"
  bottom: "conv7"
  top: "conv7"
}
layer {
  name: "conv8"
  type: "Convolution"
  bottom: "conv7"
  top: "conv8"
  param {
    lr_mult: 1
  }
  param {
    lr_mult: 1
  }
  convolution_param {
    num_output: 192
    kernel_size: 1
    stride: 1
    weight_filler {
      type: "xavier"
    }
    bias_filler {
      type: "constant"
      value: 0
    }
  }
}
layer {
  name: "relu8"
  type: "ReLU"
  bottom: "conv8"
  top: "conv8"
}
layer {
  name: "conv9"
  type: "Convolution"
  bottom: "conv8"
  top: "conv9"
  param {
    lr_mult: 1
  }
  param {
    lr_mult: 1
  }
  convolution_param {
    num_output: 10
    kernel_size: 1
    stride: 1
    weight_filler {
      type: "xavier"
    }
    bias_filler {
      type: "constant"
      value: 0
    }
  }
}
layer {
  name: "relu9"
  type: "ReLU"
  bottom: "conv9"
  top: "conv9"
}
layer {
  name: "pool"
  type: "Pooling"
  bottom: "conv9"
  top: "pool"
  pooling_param {
    pool: AVE
    global_pooling: true
  }
}
layer {
  name: "accuracy"
  type: "Accuracy"
  bottom: "pool"
  bottom: "label"
  top: "accuracy"
}
layer {
  name: "loss"
  type: "SoftmaxWithLoss"
  bottom: "pool"
  bottom: "label"
  top: "loss"
}
I0130 12:52:40.055610 32230 layer_factory.hpp:77] Creating layer data
I0130 12:52:40.055814 32230 net.cpp:100] Creating Layer data
I0130 12:52:40.055820 32230 net.cpp:408] data -> data
I0130 12:52:40.055835 32230 net.cpp:408] data -> label
I0130 12:52:40.056236 32246 db_lmdb.cpp:35] Opened lmdb cifar-10_train_lmdb
I0130 12:52:40.063201 32230 data_layer.cpp:41] output data size: 256,3,32,32
I0130 12:52:40.067507 32230 net.cpp:150] Setting up data
I0130 12:52:40.067526 32230 net.cpp:157] Top shape: 256 3 32 32 (786432)
I0130 12:52:40.067529 32230 net.cpp:157] Top shape: 256 (256)
I0130 12:52:40.067531 32230 net.cpp:165] Memory required for data: 3146752
I0130 12:52:40.067545 32230 layer_factory.hpp:77] Creating layer label_data_1_split
I0130 12:52:40.067556 32230 net.cpp:100] Creating Layer label_data_1_split
I0130 12:52:40.067562 32230 net.cpp:434] label_data_1_split <- label
I0130 12:52:40.067575 32230 net.cpp:408] label_data_1_split -> label_data_1_split_0
I0130 12:52:40.067585 32230 net.cpp:408] label_data_1_split -> label_data_1_split_1
I0130 12:52:40.067651 32230 net.cpp:150] Setting up label_data_1_split
I0130 12:52:40.067703 32230 net.cpp:157] Top shape: 256 (256)
I0130 12:52:40.067706 32230 net.cpp:157] Top shape: 256 (256)
I0130 12:52:40.067708 32230 net.cpp:165] Memory required for data: 3148800
I0130 12:52:40.067710 32230 layer_factory.hpp:77] Creating layer drop1
I0130 12:52:40.067714 32230 net.cpp:100] Creating Layer drop1
I0130 12:52:40.067716 32230 net.cpp:434] drop1 <- data
I0130 12:52:40.067719 32230 net.cpp:395] drop1 -> data (in-place)
I0130 12:52:40.067746 32230 net.cpp:150] Setting up drop1
I0130 12:52:40.067750 32230 net.cpp:157] Top shape: 256 3 32 32 (786432)
I0130 12:52:40.067752 32230 net.cpp:165] Memory required for data: 6294528
I0130 12:52:40.067754 32230 layer_factory.hpp:77] Creating layer conv1
I0130 12:52:40.067765 32230 net.cpp:100] Creating Layer conv1
I0130 12:52:40.067767 32230 net.cpp:434] conv1 <- data
I0130 12:52:40.067771 32230 net.cpp:408] conv1 -> conv1
I0130 12:52:40.225661 32230 net.cpp:150] Setting up conv1
I0130 12:52:40.225680 32230 net.cpp:157] Top shape: 256 96 32 32 (25165824)
I0130 12:52:40.225682 32230 net.cpp:165] Memory required for data: 106957824
I0130 12:52:40.225706 32230 layer_factory.hpp:77] Creating layer relu1
I0130 12:52:40.225713 32230 net.cpp:100] Creating Layer relu1
I0130 12:52:40.225716 32230 net.cpp:434] relu1 <- conv1
I0130 12:52:40.225720 32230 net.cpp:395] relu1 -> conv1 (in-place)
I0130 12:52:40.226183 32230 net.cpp:150] Setting up relu1
I0130 12:52:40.226199 32230 net.cpp:157] Top shape: 256 96 32 32 (25165824)
I0130 12:52:40.226202 32230 net.cpp:165] Memory required for data: 207621120
I0130 12:52:40.226204 32230 layer_factory.hpp:77] Creating layer conv2
I0130 12:52:40.226214 32230 net.cpp:100] Creating Layer conv2
I0130 12:52:40.226217 32230 net.cpp:434] conv2 <- conv1
I0130 12:52:40.226222 32230 net.cpp:408] conv2 -> conv2
I0130 12:52:40.228440 32230 net.cpp:150] Setting up conv2
I0130 12:52:40.228448 32230 net.cpp:157] Top shape: 256 96 32 32 (25165824)
I0130 12:52:40.228451 32230 net.cpp:165] Memory required for data: 308284416
I0130 12:52:40.228456 32230 layer_factory.hpp:77] Creating layer relu2
I0130 12:52:40.228459 32230 net.cpp:100] Creating Layer relu2
I0130 12:52:40.228461 32230 net.cpp:434] relu2 <- conv2
I0130 12:52:40.228464 32230 net.cpp:395] relu2 -> conv2 (in-place)
I0130 12:52:40.228579 32230 net.cpp:150] Setting up relu2
I0130 12:52:40.228584 32230 net.cpp:157] Top shape: 256 96 32 32 (25165824)
I0130 12:52:40.228585 32230 net.cpp:165] Memory required for data: 408947712
I0130 12:52:40.228586 32230 layer_factory.hpp:77] Creating layer conv3
I0130 12:52:40.228592 32230 net.cpp:100] Creating Layer conv3
I0130 12:52:40.228595 32230 net.cpp:434] conv3 <- conv2
I0130 12:52:40.228597 32230 net.cpp:408] conv3 -> conv3
I0130 12:52:40.230530 32230 net.cpp:150] Setting up conv3
I0130 12:52:40.230538 32230 net.cpp:157] Top shape: 256 96 16 16 (6291456)
I0130 12:52:40.230540 32230 net.cpp:165] Memory required for data: 434113536
I0130 12:52:40.230545 32230 layer_factory.hpp:77] Creating layer relu3
I0130 12:52:40.230550 32230 net.cpp:100] Creating Layer relu3
I0130 12:52:40.230551 32230 net.cpp:434] relu3 <- conv3
I0130 12:52:40.230554 32230 net.cpp:395] relu3 -> conv3 (in-place)
I0130 12:52:40.231003 32230 net.cpp:150] Setting up relu3
I0130 12:52:40.231009 32230 net.cpp:157] Top shape: 256 96 16 16 (6291456)
I0130 12:52:40.231011 32230 net.cpp:165] Memory required for data: 459279360
I0130 12:52:40.231012 32230 layer_factory.hpp:77] Creating layer drop2
I0130 12:52:40.231016 32230 net.cpp:100] Creating Layer drop2
I0130 12:52:40.231019 32230 net.cpp:434] drop2 <- conv3
I0130 12:52:40.231021 32230 net.cpp:395] drop2 -> conv3 (in-place)
I0130 12:52:40.231034 32230 net.cpp:150] Setting up drop2
I0130 12:52:40.231037 32230 net.cpp:157] Top shape: 256 96 16 16 (6291456)
I0130 12:52:40.231039 32230 net.cpp:165] Memory required for data: 484445184
I0130 12:52:40.231040 32230 layer_factory.hpp:77] Creating layer conv4
I0130 12:52:40.231045 32230 net.cpp:100] Creating Layer conv4
I0130 12:52:40.231046 32230 net.cpp:434] conv4 <- conv3
I0130 12:52:40.231050 32230 net.cpp:408] conv4 -> conv4
I0130 12:52:40.233346 32230 net.cpp:150] Setting up conv4
I0130 12:52:40.233355 32230 net.cpp:157] Top shape: 256 192 16 16 (12582912)
I0130 12:52:40.233357 32230 net.cpp:165] Memory required for data: 534776832
I0130 12:52:40.233361 32230 layer_factory.hpp:77] Creating layer relu4
I0130 12:52:40.233364 32230 net.cpp:100] Creating Layer relu4
I0130 12:52:40.233366 32230 net.cpp:434] relu4 <- conv4
I0130 12:52:40.233368 32230 net.cpp:395] relu4 -> conv4 (in-place)
I0130 12:52:40.233830 32230 net.cpp:150] Setting up relu4
I0130 12:52:40.233836 32230 net.cpp:157] Top shape: 256 192 16 16 (12582912)
I0130 12:52:40.233839 32230 net.cpp:165] Memory required for data: 585108480
I0130 12:52:40.233840 32230 layer_factory.hpp:77] Creating layer conv5
I0130 12:52:40.233847 32230 net.cpp:100] Creating Layer conv5
I0130 12:52:40.233850 32230 net.cpp:434] conv5 <- conv4
I0130 12:52:40.233852 32230 net.cpp:408] conv5 -> conv5
I0130 12:52:40.237483 32230 net.cpp:150] Setting up conv5
I0130 12:52:40.237493 32230 net.cpp:157] Top shape: 256 192 16 16 (12582912)
I0130 12:52:40.237496 32230 net.cpp:165] Memory required for data: 635440128
I0130 12:52:40.237504 32230 layer_factory.hpp:77] Creating layer relu5
I0130 12:52:40.237507 32230 net.cpp:100] Creating Layer relu5
I0130 12:52:40.237510 32230 net.cpp:434] relu5 <- conv5
I0130 12:52:40.237516 32230 net.cpp:395] relu5 -> conv5 (in-place)
I0130 12:52:40.237681 32230 net.cpp:150] Setting up relu5
I0130 12:52:40.237687 32230 net.cpp:157] Top shape: 256 192 16 16 (12582912)
I0130 12:52:40.237689 32230 net.cpp:165] Memory required for data: 685771776
I0130 12:52:40.237691 32230 layer_factory.hpp:77] Creating layer conv6
I0130 12:52:40.237697 32230 net.cpp:100] Creating Layer conv6
I0130 12:52:40.237699 32230 net.cpp:434] conv6 <- conv5
I0130 12:52:40.237704 32230 net.cpp:408] conv6 -> conv6
I0130 12:52:40.241044 32230 net.cpp:150] Setting up conv6
I0130 12:52:40.241053 32230 net.cpp:157] Top shape: 256 192 8 8 (3145728)
I0130 12:52:40.241055 32230 net.cpp:165] Memory required for data: 698354688
I0130 12:52:40.241060 32230 layer_factory.hpp:77] Creating layer relu6
I0130 12:52:40.241065 32230 net.cpp:100] Creating Layer relu6
I0130 12:52:40.241066 32230 net.cpp:434] relu6 <- conv6
I0130 12:52:40.241068 32230 net.cpp:395] relu6 -> conv6 (in-place)
I0130 12:52:40.241533 32230 net.cpp:150] Setting up relu6
I0130 12:52:40.241539 32230 net.cpp:157] Top shape: 256 192 8 8 (3145728)
I0130 12:52:40.241541 32230 net.cpp:165] Memory required for data: 710937600
I0130 12:52:40.241542 32230 layer_factory.hpp:77] Creating layer drop3
I0130 12:52:40.241549 32230 net.cpp:100] Creating Layer drop3
I0130 12:52:40.241551 32230 net.cpp:434] drop3 <- conv6
I0130 12:52:40.241554 32230 net.cpp:395] drop3 -> conv6 (in-place)
I0130 12:52:40.241571 32230 net.cpp:150] Setting up drop3
I0130 12:52:40.241575 32230 net.cpp:157] Top shape: 256 192 8 8 (3145728)
I0130 12:52:40.241576 32230 net.cpp:165] Memory required for data: 723520512
I0130 12:52:40.241577 32230 layer_factory.hpp:77] Creating layer conv7
I0130 12:52:40.241585 32230 net.cpp:100] Creating Layer conv7
I0130 12:52:40.241586 32230 net.cpp:434] conv7 <- conv6
I0130 12:52:40.241590 32230 net.cpp:408] conv7 -> conv7
I0130 12:52:40.244515 32230 net.cpp:150] Setting up conv7
I0130 12:52:40.244523 32230 net.cpp:157] Top shape: 256 192 6 6 (1769472)
I0130 12:52:40.244524 32230 net.cpp:165] Memory required for data: 730598400
I0130 12:52:40.244529 32230 layer_factory.hpp:77] Creating layer relu7
I0130 12:52:40.244532 32230 net.cpp:100] Creating Layer relu7
I0130 12:52:40.244534 32230 net.cpp:434] relu7 <- conv7
I0130 12:52:40.244537 32230 net.cpp:395] relu7 -> conv7 (in-place)
I0130 12:52:40.245004 32230 net.cpp:150] Setting up relu7
I0130 12:52:40.245010 32230 net.cpp:157] Top shape: 256 192 6 6 (1769472)
I0130 12:52:40.245012 32230 net.cpp:165] Memory required for data: 737676288
I0130 12:52:40.245013 32230 layer_factory.hpp:77] Creating layer conv8
I0130 12:52:40.245020 32230 net.cpp:100] Creating Layer conv8
I0130 12:52:40.245023 32230 net.cpp:434] conv8 <- conv7
I0130 12:52:40.245026 32230 net.cpp:408] conv8 -> conv8
I0130 12:52:40.247067 32230 net.cpp:150] Setting up conv8
I0130 12:52:40.247076 32230 net.cpp:157] Top shape: 256 192 6 6 (1769472)
I0130 12:52:40.247077 32230 net.cpp:165] Memory required for data: 744754176
I0130 12:52:40.247081 32230 layer_factory.hpp:77] Creating layer relu8
I0130 12:52:40.247084 32230 net.cpp:100] Creating Layer relu8
I0130 12:52:40.247087 32230 net.cpp:434] relu8 <- conv8
I0130 12:52:40.247089 32230 net.cpp:395] relu8 -> conv8 (in-place)
I0130 12:52:40.247206 32230 net.cpp:150] Setting up relu8
I0130 12:52:40.247210 32230 net.cpp:157] Top shape: 256 192 6 6 (1769472)
I0130 12:52:40.247212 32230 net.cpp:165] Memory required for data: 751832064
I0130 12:52:40.247215 32230 layer_factory.hpp:77] Creating layer conv9
I0130 12:52:40.247220 32230 net.cpp:100] Creating Layer conv9
I0130 12:52:40.247223 32230 net.cpp:434] conv9 <- conv8
I0130 12:52:40.247228 32230 net.cpp:408] conv9 -> conv9
I0130 12:52:40.248474 32230 net.cpp:150] Setting up conv9
I0130 12:52:40.248481 32230 net.cpp:157] Top shape: 256 10 6 6 (92160)
I0130 12:52:40.248482 32230 net.cpp:165] Memory required for data: 752200704
I0130 12:52:40.248489 32230 layer_factory.hpp:77] Creating layer relu9
I0130 12:52:40.248492 32230 net.cpp:100] Creating Layer relu9
I0130 12:52:40.248494 32230 net.cpp:434] relu9 <- conv9
I0130 12:52:40.248503 32230 net.cpp:395] relu9 -> conv9 (in-place)
I0130 12:52:40.248965 32230 net.cpp:150] Setting up relu9
I0130 12:52:40.248971 32230 net.cpp:157] Top shape: 256 10 6 6 (92160)
I0130 12:52:40.248973 32230 net.cpp:165] Memory required for data: 752569344
I0130 12:52:40.248975 32230 layer_factory.hpp:77] Creating layer pool
I0130 12:52:40.248980 32230 net.cpp:100] Creating Layer pool
I0130 12:52:40.248981 32230 net.cpp:434] pool <- conv9
I0130 12:52:40.248986 32230 net.cpp:408] pool -> pool
I0130 12:52:40.249127 32230 net.cpp:150] Setting up pool
I0130 12:52:40.249133 32230 net.cpp:157] Top shape: 256 10 1 1 (2560)
I0130 12:52:40.249135 32230 net.cpp:165] Memory required for data: 752579584
I0130 12:52:40.249136 32230 layer_factory.hpp:77] Creating layer pool_pool_0_split
I0130 12:52:40.249140 32230 net.cpp:100] Creating Layer pool_pool_0_split
I0130 12:52:40.249142 32230 net.cpp:434] pool_pool_0_split <- pool
I0130 12:52:40.249145 32230 net.cpp:408] pool_pool_0_split -> pool_pool_0_split_0
I0130 12:52:40.249148 32230 net.cpp:408] pool_pool_0_split -> pool_pool_0_split_1
I0130 12:52:40.249174 32230 net.cpp:150] Setting up pool_pool_0_split
I0130 12:52:40.249178 32230 net.cpp:157] Top shape: 256 10 1 1 (2560)
I0130 12:52:40.249181 32230 net.cpp:157] Top shape: 256 10 1 1 (2560)
I0130 12:52:40.249181 32230 net.cpp:165] Memory required for data: 752600064
I0130 12:52:40.249183 32230 layer_factory.hpp:77] Creating layer accuracy
I0130 12:52:40.249188 32230 net.cpp:100] Creating Layer accuracy
I0130 12:52:40.249189 32230 net.cpp:434] accuracy <- pool_pool_0_split_0
I0130 12:52:40.249192 32230 net.cpp:434] accuracy <- label_data_1_split_0
I0130 12:52:40.249194 32230 net.cpp:408] accuracy -> accuracy
…
I0130 12:52:40.249848 32230 net.cpp:283] Network initialization done.
I0130 12:52:40.250032 32230 solver.cpp:181] Creating test net (#0) specified by net file: ALL_CNN_C_train_val.prototxt
I0130 12:52:40.250053 32230 net.cpp:322] The NetState phase (1) differed from the phase (0) specified by a rule in layer data
I0130 12:52:40.250143 32230 net.cpp:58] Initializing net from parameters: 
name: "ALL-CNN-C"
state {
  phase: TEST
}
layer {
  name: "data"
  type: "Data"
  top: "data"
  top: "label"
  include {
    phase: TEST
  }
  data_param {
    source: "cifar-10_test_lmdb"
    batch_size: 200
    backend: LMDB
  }
}
layer {
  name: "drop1"
  type: "Dropout"
  bottom: "data"
  top: "data"
  dropout_param {
    dropout_ratio: 0.2
  }
}
layer {
  name: "conv1"
  type: "Convolution"
  bottom: "data"
  top: "conv1"
  param {
    lr_mult: 1
  }
  param {
    lr_mult: 1
  }
  convolution_param {
    num_output: 96
    pad: 1
    kernel_size: 3
    stride: 1
    weight_filler {
      type: "xavier"
    }
    bias_filler {
      type: "constant"
      value: 0
    }
  }
}
layer {
  name: "relu1"
  type: "ReLU"
  bottom: "conv1"
  top: "conv1"
}
layer {
  name: "conv2"
  type: "Convolution"
  bottom: "conv1"
  top: "conv2"
  param {
    lr_mult: 1
  }
  param {
    lr_mult: 1
  }
  convolution_param {
    num_output: 96
    pad: 1
    kernel_size: 3
    stride: 1
    weight_filler {
      type: "xavier"
    }
    bias_filler {
      type: "constant"
      value: 0
    }
  }
}
layer {
  name: "relu2"
  type: "ReLU"
  bottom: "conv2"
  top: "conv2"
}
layer {
  name: "conv3"
  type: "Convolution"
  bottom: "conv2"
  top: "conv3"
  param {
    lr_mult: 1
  }
  param {
    lr_mult: 1
  }
  convolution_param {
    num_output: 96
    pad: 1
    kernel_size: 3
    stride: 2
    weight_filler {
      type: "xavier"
    }
    bias_filler {
      type: "constant"
      value: 0
    }
  }
}
layer {
  name: "relu3"
  type: "ReLU"
  bottom: "conv3"
  top: "conv3"
}
layer {
  name: "drop2"
  type: "Dropout"
  bottom: "conv3"
  top: "conv3"
  dropout_param {
    dropout_ratio: 0.5
  }
}
layer {
  name: "conv4"
  type: "Convolution"
  bottom: "conv3"
  top: "conv4"
  param {
    lr_mult: 1
  }
  param {
    lr_mult: 1
  }
  convolution_param {
    num_output: 192
    pad: 1
    kernel_size: 3
    stride: 1
    weight_filler {
      type: "xavier"
    }
    bias_filler {
      type: "constant"
      value: 0
    }
  }
}
layer {
  name: "relu4"
  type: "ReLU"
  bottom: "conv4"
  top: "conv4"
}
layer {
  name: "conv5"
  type: "Convolution"
  bottom: "conv4"
  top: "conv5"
  param {
    lr_mult: 1
  }
  param {
    lr_mult: 1
  }
  convolution_param {
    num_output: 192
    pad: 1
    kernel_size: 3
    stride: 1
    weight_filler {
      type: "xavier"
    }
    bias_filler {
      type: "constant"
      value: 0
    }
  }
}
layer {
  name: "relu5"
  type: "ReLU"
  bottom: "conv5"
  top: "conv5"
}
layer {
  name: "conv6"
  type: "Convolution"
  bottom: "conv5"
  top: "conv6"
  param {
    lr_mult: 1
  }
  param {
    lr_mult: 1
  }
  convolution_param {
    num_output: 192
    pad: 1
    kernel_size: 3
    stride: 2
    weight_filler {
      type: "xavier"
    }
    bias_filler {
      type: "constant"
      value: 0
    }
  }
}
layer {
  name: "relu6"
  type: "ReLU"
  bottom: "conv6"
  top: "conv6"
}
layer {
  name: "drop3"
  type: "Dropout"
  bottom: "conv6"
  top: "conv6"
  dropout_param {
    dropout_ratio: 0.5
  }
}
layer {
  name: "conv7"
  type: "Convolution"
  bottom: "conv6"
  top: "conv7"
  param {
    lr_mult: 1
  }
  param {
    lr_mult: 1
  }
  convolution_param {
    num_output: 192
    kernel_size: 3
    stride: 1
    weight_filler {
      type: "xavier"
    }
    bias_filler {
      type: "constant"
      value: 0
    }
  }
}
layer {
  name: "relu7"
  type: "ReLU"
  bottom: "conv7"
  top: "conv7"
}
layer {
  name: "conv8"
  type: "Convolution"
  bottom: "conv7"
  top: "conv8"
  param {
    lr_mult: 1
  }
  param {
    lr_mult: 1
  }
  convolution_param {
    num_output: 192
    kernel_size: 1
    stride: 1
    weight_filler {
      type: "xavier"
    }
    bias_filler {
      type: "constant"
      value: 0
    }
  }
}
layer {
  name: "relu8"
  type: "ReLU"
  bottom: "conv8"
  top: "conv8"
}
layer {
  name: "conv9"
  type: "Convolution"
  bottom: "conv8"
  top: "conv9"
  param {
    lr_mult: 1
  }
  param {
    lr_mult: 1
  }
  convolution_param {
    num_output: 10
    kernel_size: 1
    stride: 1
    weight_filler {
      type: "xavier"
    }
    bias_filler {
      type: "constant"
      value: 0
    }
  }
}
layer {
  name: "relu9"
  type: "ReLU"
  bottom: "conv9"
  top: "conv9"
}
layer {
  name: "pool"
  type: "Pooling"
  bottom: "conv9"
  top: "pool"
  pooling_param {
    pool: AVE
    global_pooling: true
  }
}
layer {
  name: "accuracy"
  type: "Accuracy"
  bottom: "pool"
  bottom: "label"
  top: "accuracy"
}
layer {
  name: "loss"
  type: "SoftmaxWithLoss"
  bottom: "pool"
  bottom: "label"
  top: "loss"
}
I0130 12:52:40.250202 32230 layer_factory.hpp:77] Creating layer data
I0130 12:52:40.250322 32230 net.cpp:100] Creating Layer data
I0130 12:52:40.250329 32230 net.cpp:408] data -> data
I0130 12:52:40.250332 32230 net.cpp:408] data -> label
I0130 12:52:40.250844 32248 db_lmdb.cpp:35] Opened lmdb cifar-10_test_lmdb
I0130 12:52:40.250937 32230 data_layer.cpp:41] output data size: 200,3,32,32
I0130 12:52:40.254842 32230 net.cpp:150] Setting up data
I0130 12:52:40.254861 32230 net.cpp:157] Top shape: 200 3 32 32 (614400)
I0130 12:52:40.254864 32230 net.cpp:157] Top shape: 200 (200)
I0130 12:52:40.254865 32230 net.cpp:165] Memory required for data: 2458400
I0130 12:52:40.254869 32230 layer_factory.hpp:77] Creating layer label_data_1_split
I0130 12:52:40.254879 32230 net.cpp:100] Creating Layer label_data_1_split
I0130 12:52:40.254884 32230 net.cpp:434] label_data_1_split <- label
I0130 12:52:40.254889 32230 net.cpp:408] label_data_1_split -> label_data_1_split_0
I0130 12:52:40.254895 32230 net.cpp:408] label_data_1_split -> label_data_1_split_1
I0130 12:52:40.254956 32230 net.cpp:150] Setting up label_data_1_split
I0130 12:52:40.254961 32230 net.cpp:157] Top shape: 200 (200)
I0130 12:52:40.254962 32230 net.cpp:157] Top shape: 200 (200)
I0130 12:52:40.254964 32230 net.cpp:165] Memory required for data: 2460000
I0130 12:52:40.254966 32230 layer_factory.hpp:77] Creating layer drop1
I0130 12:52:40.254971 32230 net.cpp:100] Creating Layer drop1
I0130 12:52:40.254972 32230 net.cpp:434] drop1 <- data
I0130 12:52:40.254976 32230 net.cpp:395] drop1 -> data (in-place)
I0130 12:52:40.255007 32230 net.cpp:150] Setting up drop1
I0130 12:52:40.255010 32230 net.cpp:157] Top shape: 200 3 32 32 (614400)
I0130 12:52:40.255012 32230 net.cpp:165] Memory required for data: 4917600
I0130 12:52:40.255014 32230 layer_factory.hpp:77] Creating layer conv1
I0130 12:52:40.255023 32230 net.cpp:100] Creating Layer conv1
I0130 12:52:40.255026 32230 net.cpp:434] conv1 <- data
I0130 12:52:40.255030 32230 net.cpp:408] conv1 -> conv1
I0130 12:52:40.256852 32230 net.cpp:150] Setting up conv1
I0130 12:52:40.256865 32230 net.cpp:157] Top shape: 200 96 32 32 (19660800)
I0130 12:52:40.256867 32230 net.cpp:165] Memory required for data: 83560800
I0130 12:52:40.256875 32230 layer_factory.hpp:77] Creating layer relu1
I0130 12:52:40.256886 32230 net.cpp:100] Creating Layer relu1
I0130 12:52:40.256901 32230 net.cpp:434] relu1 <- conv1
I0130 12:52:40.256904 32230 net.cpp:395] relu1 -> conv1 (in-place)
I0130 12:52:40.257618 32230 net.cpp:150] Setting up relu1
I0130 12:52:40.257627 32230 net.cpp:157] Top shape: 200 96 32 32 (19660800)
I0130 12:52:40.257630 32230 net.cpp:165] Memory required for data: 162204000
I0130 12:52:40.257633 32230 layer_factory.hpp:77] Creating layer conv2
I0130 12:52:40.257643 32230 net.cpp:100] Creating Layer conv2
I0130 12:52:40.257647 32230 net.cpp:434] conv2 <- conv1
I0130 12:52:40.257652 32230 net.cpp:408] conv2 -> conv2
I0130 12:52:40.259987 32230 net.cpp:150] Setting up conv2
I0130 12:52:40.259999 32230 net.cpp:157] Top shape: 200 96 32 32 (19660800)
I0130 12:52:40.260000 32230 net.cpp:165] Memory required for data: 240847200
I0130 12:52:40.260009 32230 layer_factory.hpp:77] Creating layer relu2
I0130 12:52:40.260012 32230 net.cpp:100] Creating Layer relu2
I0130 12:52:40.260015 32230 net.cpp:434] relu2 <- conv2
I0130 12:52:40.260017 32230 net.cpp:395] relu2 -> conv2 (in-place)
I0130 12:52:40.260152 32230 net.cpp:150] Setting up relu2
I0130 12:52:40.260157 32230 net.cpp:157] Top shape: 200 96 32 32 (19660800)
I0130 12:52:40.260159 32230 net.cpp:165] Memory required for data: 319490400
I0130 12:52:40.260160 32230 layer_factory.hpp:77] Creating layer conv3
I0130 12:52:40.260169 32230 net.cpp:100] Creating Layer conv3
I0130 12:52:40.260170 32230 net.cpp:434] conv3 <- conv2
I0130 12:52:40.260174 32230 net.cpp:408] conv3 -> conv3
I0130 12:52:40.261921 32230 net.cpp:150] Setting up conv3
I0130 12:52:40.261929 32230 net.cpp:157] Top shape: 200 96 16 16 (4915200)
I0130 12:52:40.261931 32230 net.cpp:165] Memory required for data: 339151200
I0130 12:52:40.261936 32230 layer_factory.hpp:77] Creating layer relu3
I0130 12:52:40.261942 32230 net.cpp:100] Creating Layer relu3
I0130 12:52:40.261945 32230 net.cpp:434] relu3 <- conv3
I0130 12:52:40.261948 32230 net.cpp:395] relu3 -> conv3 (in-place)
I0130 12:52:40.262420 32230 net.cpp:150] Setting up relu3
I0130 12:52:40.262428 32230 net.cpp:157] Top shape: 200 96 16 16 (4915200)
I0130 12:52:40.262429 32230 net.cpp:165] Memory required for data: 358812000
I0130 12:52:40.262431 32230 layer_factory.hpp:77] Creating layer drop2
I0130 12:52:40.262435 32230 net.cpp:100] Creating Layer drop2
I0130 12:52:40.262437 32230 net.cpp:434] drop2 <- conv3
I0130 12:52:40.262439 32230 net.cpp:395] drop2 -> conv3 (in-place)
I0130 12:52:40.262456 32230 net.cpp:150] Setting up drop2
I0130 12:52:40.262459 32230 net.cpp:157] Top shape: 200 96 16 16 (4915200)
I0130 12:52:40.262461 32230 net.cpp:165] Memory required for data: 378472800
I0130 12:52:40.262464 32230 layer_factory.hpp:77] Creating layer conv4
I0130 12:52:40.262472 32230 net.cpp:100] Creating Layer conv4
I0130 12:52:40.262475 32230 net.cpp:434] conv4 <- conv3
I0130 12:52:40.262480 32230 net.cpp:408] conv4 -> conv4
I0130 12:52:40.264899 32230 net.cpp:150] Setting up conv4
I0130 12:52:40.264907 32230 net.cpp:157] Top shape: 200 192 16 16 (9830400)
I0130 12:52:40.264909 32230 net.cpp:165] Memory required for data: 417794400
I0130 12:52:40.264914 32230 layer_factory.hpp:77] Creating layer relu4
I0130 12:52:40.264917 32230 net.cpp:100] Creating Layer relu4
I0130 12:52:40.264919 32230 net.cpp:434] relu4 <- conv4
I0130 12:52:40.264922 32230 net.cpp:395] relu4 -> conv4 (in-place)
I0130 12:52:40.265388 32230 net.cpp:150] Setting up relu4
I0130 12:52:40.265394 32230 net.cpp:157] Top shape: 200 192 16 16 (9830400)
I0130 12:52:40.265396 32230 net.cpp:165] Memory required for data: 457116000
I0130 12:52:40.265398 32230 layer_factory.hpp:77] Creating layer conv5
I0130 12:52:40.265404 32230 net.cpp:100] Creating Layer conv5
I0130 12:52:40.265406 32230 net.cpp:434] conv5 <- conv4
I0130 12:52:40.265410 32230 net.cpp:408] conv5 -> conv5
I0130 12:52:40.269035 32230 net.cpp:150] Setting up conv5
I0130 12:52:40.269044 32230 net.cpp:157] Top shape: 200 192 16 16 (9830400)
I0130 12:52:40.269047 32230 net.cpp:165] Memory required for data: 496437600
I0130 12:52:40.269052 32230 layer_factory.hpp:77] Creating layer relu5
I0130 12:52:40.269060 32230 net.cpp:100] Creating Layer relu5
I0130 12:52:40.269062 32230 net.cpp:434] relu5 <- conv5
I0130 12:52:40.269067 32230 net.cpp:395] relu5 -> conv5 (in-place)
I0130 12:52:40.269208 32230 net.cpp:150] Setting up relu5
I0130 12:52:40.269214 32230 net.cpp:157] Top shape: 200 192 16 16 (9830400)
I0130 12:52:40.269217 32230 net.cpp:165] Memory required for data: 535759200
I0130 12:52:40.269218 32230 layer_factory.hpp:77] Creating layer conv6
I0130 12:52:40.269223 32230 net.cpp:100] Creating Layer conv6
I0130 12:52:40.269225 32230 net.cpp:434] conv6 <- conv5
I0130 12:52:40.269230 32230 net.cpp:408] conv6 -> conv6
I0130 12:52:40.272866 32230 net.cpp:150] Setting up conv6
I0130 12:52:40.272874 32230 net.cpp:157] Top shape: 200 192 8 8 (2457600)
I0130 12:52:40.272877 32230 net.cpp:165] Memory required for data: 545589600
I0130 12:52:40.272881 32230 layer_factory.hpp:77] Creating layer relu6
I0130 12:52:40.272883 32230 net.cpp:100] Creating Layer relu6
I0130 12:52:40.272886 32230 net.cpp:434] relu6 <- conv6
I0130 12:52:40.272888 32230 net.cpp:395] relu6 -> conv6 (in-place)
I0130 12:52:40.273375 32230 net.cpp:150] Setting up relu6
I0130 12:52:40.273381 32230 net.cpp:157] Top shape: 200 192 8 8 (2457600)
I0130 12:52:40.273383 32230 net.cpp:165] Memory required for data: 555420000
I0130 12:52:40.273386 32230 layer_factory.hpp:77] Creating layer drop3
I0130 12:52:40.273392 32230 net.cpp:100] Creating Layer drop3
I0130 12:52:40.273394 32230 net.cpp:434] drop3 <- conv6
I0130 12:52:40.273396 32230 net.cpp:395] drop3 -> conv6 (in-place)
I0130 12:52:40.273417 32230 net.cpp:150] Setting up drop3
I0130 12:52:40.273422 32230 net.cpp:157] Top shape: 200 192 8 8 (2457600)
I0130 12:52:40.273424 32230 net.cpp:165] Memory required for data: 565250400
I0130 12:52:40.273427 32230 layer_factory.hpp:77] Creating layer conv7
I0130 12:52:40.273437 32230 net.cpp:100] Creating Layer conv7
I0130 12:52:40.273439 32230 net.cpp:434] conv7 <- conv6
I0130 12:52:40.273443 32230 net.cpp:408] conv7 -> conv7
I0130 12:52:40.276507 32230 net.cpp:150] Setting up conv7
I0130 12:52:40.276515 32230 net.cpp:157] Top shape: 200 192 6 6 (1382400)
I0130 12:52:40.276518 32230 net.cpp:165] Memory required for data: 570780000
I0130 12:52:40.276522 32230 layer_factory.hpp:77] Creating layer relu7
I0130 12:52:40.276525 32230 net.cpp:100] Creating Layer relu7
I0130 12:52:40.276527 32230 net.cpp:434] relu7 <- conv7
I0130 12:52:40.276532 32230 net.cpp:395] relu7 -> conv7 (in-place)
I0130 12:52:40.277011 32230 net.cpp:150] Setting up relu7
I0130 12:52:40.277017 32230 net.cpp:157] Top shape: 200 192 6 6 (1382400)
I0130 12:52:40.277019 32230 net.cpp:165] Memory required for data: 576309600
I0130 12:52:40.277021 32230 layer_factory.hpp:77] Creating layer conv8
I0130 12:52:40.277029 32230 net.cpp:100] Creating Layer conv8
I0130 12:52:40.277030 32230 net.cpp:434] conv8 <- conv7
I0130 12:52:40.277034 32230 net.cpp:408] conv8 -> conv8
I0130 12:52:40.278501 32230 net.cpp:150] Setting up conv8
I0130 12:52:40.278507 32230 net.cpp:157] Top shape: 200 192 6 6 (1382400)
I0130 12:52:40.278509 32230 net.cpp:165] Memory required for data: 581839200
I0130 12:52:40.278512 32230 layer_factory.hpp:77] Creating layer relu8
I0130 12:52:40.278517 32230 net.cpp:100] Creating Layer relu8
I0130 12:52:40.278518 32230 net.cpp:434] relu8 <- conv8
I0130 12:52:40.278522 32230 net.cpp:395] relu8 -> conv8 (in-place)
I0130 12:52:40.278645 32230 net.cpp:150] Setting up relu8
I0130 12:52:40.278650 32230 net.cpp:157] Top shape: 200 192 6 6 (1382400)
I0130 12:52:40.278652 32230 net.cpp:165] Memory required for data: 587368800
I0130 12:52:40.278654 32230 layer_factory.hpp:77] Creating layer conv9
I0130 12:52:40.278659 32230 net.cpp:100] Creating Layer conv9
I0130 12:52:40.278661 32230 net.cpp:434] conv9 <- conv8
I0130 12:52:40.278666 32230 net.cpp:408] conv9 -> conv9
I0130 12:52:40.279954 32230 net.cpp:150] Setting up conv9
I0130 12:52:40.279963 32230 net.cpp:157] Top shape: 200 10 6 6 (72000)
I0130 12:52:40.279964 32230 net.cpp:165] Memory required for data: 587656800
I0130 12:52:40.279969 32230 layer_factory.hpp:77] Creating layer relu9
I0130 12:52:40.279980 32230 net.cpp:100] Creating Layer relu9
I0130 12:52:40.279983 32230 net.cpp:434] relu9 <- conv9
I0130 12:52:40.279985 32230 net.cpp:395] relu9 -> conv9 (in-place)
I0130 12:52:40.280455 32230 net.cpp:150] Setting up relu9
I0130 12:52:40.280462 32230 net.cpp:157] Top shape: 200 10 6 6 (72000)
I0130 12:52:40.280463 32230 net.cpp:165] Memory required for data: 587944800
I0130 12:52:40.280465 32230 layer_factory.hpp:77] Creating layer pool
I0130 12:52:40.280472 32230 net.cpp:100] Creating Layer pool
I0130 12:52:40.280472 32230 net.cpp:434] pool <- conv9
I0130 12:52:40.280475 32230 net.cpp:408] pool -> pool
I0130 12:52:40.280609 32230 net.cpp:150] Setting up pool
I0130 12:52:40.280613 32230 net.cpp:157] Top shape: 200 10 1 1 (2000)
I0130 12:52:40.280616 32230 net.cpp:165] Memory required for data: 587952800
I0130 12:52:40.280616 32230 layer_factory.hpp:77] Creating layer pool_pool_0_split
I0130 12:52:40.280622 32230 net.cpp:100] Creating Layer pool_pool_0_split
I0130 12:52:40.280623 32230 net.cpp:434] pool_pool_0_split <- pool
I0130 12:52:40.280627 32230 net.cpp:408] pool_pool_0_split -> pool_pool_0_split_0
I0130 12:52:40.280630 32230 net.cpp:408] pool_pool_0_split -> pool_pool_0_split_1
I0130 12:52:40.280658 32230 net.cpp:150] Setting up pool_pool_0_split
I0130 12:52:40.280663 32230 net.cpp:157] Top shape: 200 10 1 1 (2000)
I0130 12:52:40.280664 32230 net.cpp:157] Top shape: 200 10 1 1 (2000)
I0130 12:52:40.280665 32230 net.cpp:165] Memory required for data: 587968800
I0130 12:52:40.280668 32230 layer_factory.hpp:77] Creating layer accuracy
I0130 12:52:40.280670 32230 net.cpp:100] Creating Layer accuracy
I0130 12:52:40.280673 32230 net.cpp:434] accuracy <- pool_pool_0_split_0
I0130 12:52:40.280674 32230 net.cpp:434] accuracy <- label_data_1_split_0
I0130 12:52:40.280678 32230 net.cpp:408] accuracy -> accuracy
…
